{"format": "layers-model", "generatedBy": "keras v2.2.4-tf", "convertedBy": "TensorFlow.js Converter v1.4.0", "modelTopology": {"keras_version": "2.2.4-tf", "backend": "tensorflow", "model_config": {"class_name": "Model", "config": {"name": "model", "layers": [{"name": "input_1", "class_name": "InputLayer", "config": {"batch_input_shape": [null, 224, 224, 3], "dtype": "float32", "sparse": false, "ragged": false, "name": "input_1"}, "inbound_nodes": []}, {"name": "conv1_pad", "class_name": "ZeroPadding2D", "config": {"name": "conv1_pad", "trainable": false, "dtype": "float32", "padding": [[0, 1], [0, 1]], "data_format": "channels_last"}, "inbound_nodes": [[["input_1", 0, 0, {}]]]}, {"name": "conv1", "class_name": "Conv2D", "config": {"name": "conv1", "trainable": false, "dtype": "float32", "filters": 32, "kernel_size": [3, 3], "strides": [2, 2], "padding": "valid", "data_format": "channels_last", "dilation_rate": [1, 1], "activation": "linear", "use_bias": false, "kernel_initializer": {"class_name": "GlorotUniform", "config": {"seed": null, "dtype": "float32"}}, "bias_initializer": {"class_name": "Zeros", "config": {"dtype": "float32"}}, "kernel_regularizer": null, "bias_regularizer": null, "activity_regularizer": null, "kernel_constraint": null, "bias_constraint": null}, "inbound_nodes": [[["conv1_pad", 0, 0, {}]]]}, {"name": "conv1_bn", "class_name": "BatchNormalization", "config": {"name": "conv1_bn", "trainable": false, "dtype": "float32", "axis": [3], "momentum": 0.99, "epsilon": 0.001, "center": true, "scale": true, "beta_initializer": {"class_name": "Zeros", "config": {"dtype": "float32"}}, "gamma_initializer": {"class_name": "Ones", "config": {"dtype": "float32"}}, "moving_mean_initializer": {"class_name": "Zeros", "config": {"dtype": "float32"}}, "moving_variance_initializer": {"class_name": "Ones", "config": {"dtype": "float32"}}, "beta_regularizer": null, "gamma_regularizer": null, "beta_constraint": null, "gamma_constraint": null}, "inbound_nodes": [[["conv1", 0, 0, {}]]]}, {"name": "conv1_relu", "class_name": "ReLU", "config": {"name": "conv1_relu", "trainable": false, "dtype": "float32", "max_value": 6.0, "negative_slope": 0.0, "threshold": 0.0}, "inbound_nodes": [[["conv1_bn", 0, 0, {}]]]}, {"name": "conv_dw_1", "class_name": "DepthwiseConv2D", "config": {"name": "conv_dw_1", "trainable": false, "dtype": "float32", "kernel_size": [3, 3], "strides": [1, 1], "padding": "same", "data_format": "channels_last", "dilation_rate": [1, 1], "activation": "linear", "use_bias": false, "bias_initializer": {"class_name": "Zeros", "config": {"dtype": "float32"}}, "bias_regularizer": null, "activity_regularizer": null, "bias_constraint": null, "depth_multiplier": 1, "depthwise_initializer": {"class_name": "GlorotUniform", "config": {"seed": null, "dtype": "float32"}}, "depthwise_regularizer": null, "depthwise_constraint": null}, "inbound_nodes": [[["conv1_relu", 0, 0, {}]]]}, {"name": "conv_dw_1_bn", "class_name": "BatchNormalization", "config": {"name": "conv_dw_1_bn", "trainable": false, "dtype": "float32", "axis": [3], "momentum": 0.99, "epsilon": 0.001, "center": true, "scale": true, "beta_initializer": {"class_name": "Zeros", "config": {"dtype": "float32"}}, "gamma_initializer": {"class_name": "Ones", "config": {"dtype": "float32"}}, "moving_mean_initializer": {"class_name": "Zeros", "config": {"dtype": "float32"}}, "moving_variance_initializer": {"class_name": "Ones", "config": {"dtype": "float32"}}, "beta_regularizer": null, "gamma_regularizer": null, "beta_constraint": null, "gamma_constraint": null}, "inbound_nodes": [[["conv_dw_1", 0, 0, {}]]]}, {"name": "conv_dw_1_relu", "class_name": "ReLU", "config": {"name": "conv_dw_1_relu", "trainable": false, "dtype": "float32", "max_value": 6.0, "negative_slope": 0.0, "threshold": 0.0}, "inbound_nodes": [[["conv_dw_1_bn", 0, 0, {}]]]}, {"name": "conv_pw_1", "class_name": "Conv2D", "config": {"name": "conv_pw_1", "trainable": false, "dtype": "float32", "filters": 64, "kernel_size": [1, 1], "strides": [1, 1], "padding": "same", "data_format": "channels_last", "dilation_rate": [1, 1], "activation": "linear", "use_bias": false, "kernel_initializer": {"class_name": "GlorotUniform", "config": {"seed": null, "dtype": "float32"}}, "bias_initializer": {"class_name": "Zeros", "config": {"dtype": "float32"}}, "kernel_regularizer": null, "bias_regularizer": null, "activity_regularizer": null, "kernel_constraint": null, "bias_constraint": null}, "inbound_nodes": [[["conv_dw_1_relu", 0, 0, {}]]]}, {"name": "conv_pw_1_bn", "class_name": "BatchNormalization", "config": {"name": "conv_pw_1_bn", "trainable": false, "dtype": "float32", "axis": [3], "momentum": 0.99, "epsilon": 0.001, "center": true, "scale": true, "beta_initializer": {"class_name": "Zeros", "config": {"dtype": "float32"}}, "gamma_initializer": {"class_name": "Ones", "config": {"dtype": "float32"}}, "moving_mean_initializer": {"class_name": "Zeros", "config": {"dtype": "float32"}}, "moving_variance_initializer": {"class_name": "Ones", "config": {"dtype": "float32"}}, "beta_regularizer": null, "gamma_regularizer": null, "beta_constraint": null, "gamma_constraint": null}, "inbound_nodes": [[["conv_pw_1", 0, 0, {}]]]}, {"name": "conv_pw_1_relu", "class_name": "ReLU", "config": {"name": "conv_pw_1_relu", "trainable": false, "dtype": "float32", "max_value": 6.0, "negative_slope": 0.0, "threshold": 0.0}, "inbound_nodes": [[["conv_pw_1_bn", 0, 0, {}]]]}, {"name": "conv_pad_2", "class_name": "ZeroPadding2D", "config": {"name": "conv_pad_2", "trainable": false, "dtype": "float32", "padding": [[0, 1], [0, 1]], "data_format": "channels_last"}, "inbound_nodes": [[["conv_pw_1_relu", 0, 0, {}]]]}, {"name": "conv_dw_2", "class_name": "DepthwiseConv2D", "config": {"name": "conv_dw_2", "trainable": false, "dtype": "float32", "kernel_size": [3, 3], "strides": [2, 2], "padding": "valid", "data_format": "channels_last", "dilation_rate": [1, 1], "activation": "linear", "use_bias": false, "bias_initializer": {"class_name": "Zeros", "config": {"dtype": "float32"}}, "bias_regularizer": null, "activity_regularizer": null, "bias_constraint": null, "depth_multiplier": 1, "depthwise_initializer": {"class_name": "GlorotUniform", "config": {"seed": null, "dtype": "float32"}}, "depthwise_regularizer": null, "depthwise_constraint": null}, "inbound_nodes": [[["conv_pad_2", 0, 0, {}]]]}, {"name": "conv_dw_2_bn", "class_name": "BatchNormalization", "config": {"name": "conv_dw_2_bn", "trainable": false, "dtype": "float32", "axis": [3], "momentum": 0.99, "epsilon": 0.001, "center": true, "scale": true, "beta_initializer": {"class_name": "Zeros", "config": {"dtype": "float32"}}, "gamma_initializer": {"class_name": "Ones", "config": {"dtype": "float32"}}, "moving_mean_initializer": {"class_name": "Zeros", "config": {"dtype": "float32"}}, "moving_variance_initializer": {"class_name": "Ones", "config": {"dtype": "float32"}}, "beta_regularizer": null, "gamma_regularizer": null, "beta_constraint": null, "gamma_constraint": null}, "inbound_nodes": [[["conv_dw_2", 0, 0, {}]]]}, {"name": "conv_dw_2_relu", "class_name": "ReLU", "config": {"name": "conv_dw_2_relu", "trainable": false, "dtype": "float32", "max_value": 6.0, "negative_slope": 0.0, "threshold": 0.0}, "inbound_nodes": [[["conv_dw_2_bn", 0, 0, {}]]]}, {"name": "conv_pw_2", "class_name": "Conv2D", "config": {"name": "conv_pw_2", "trainable": false, "dtype": "float32", "filters": 128, "kernel_size": [1, 1], "strides": [1, 1], "padding": "same", "data_format": "channels_last", "dilation_rate": [1, 1], "activation": "linear", "use_bias": false, "kernel_initializer": {"class_name": "GlorotUniform", "config": {"seed": null, "dtype": "float32"}}, "bias_initializer": {"class_name": "Zeros", "config": {"dtype": "float32"}}, "kernel_regularizer": null, "bias_regularizer": null, "activity_regularizer": null, "kernel_constraint": null, "bias_constraint": null}, "inbound_nodes": [[["conv_dw_2_relu", 0, 0, {}]]]}, {"name": "conv_pw_2_bn", "class_name": "BatchNormalization", "config": {"name": "conv_pw_2_bn", "trainable": false, "dtype": "float32", "axis": [3], "momentum": 0.99, "epsilon": 0.001, "center": true, "scale": true, "beta_initializer": {"class_name": "Zeros", "config": {"dtype": "float32"}}, "gamma_initializer": {"class_name": "Ones", "config": {"dtype": "float32"}}, "moving_mean_initializer": {"class_name": "Zeros", "config": {"dtype": "float32"}}, "moving_variance_initializer": {"class_name": "Ones", "config": {"dtype": "float32"}}, "beta_regularizer": null, "gamma_regularizer": null, "beta_constraint": null, "gamma_constraint": null}, "inbound_nodes": [[["conv_pw_2", 0, 0, {}]]]}, {"name": "conv_pw_2_relu", "class_name": "ReLU", "config": {"name": "conv_pw_2_relu", "trainable": false, "dtype": "float32", "max_value": 6.0, "negative_slope": 0.0, "threshold": 0.0}, "inbound_nodes": [[["conv_pw_2_bn", 0, 0, {}]]]}, {"name": "conv_dw_3", "class_name": "DepthwiseConv2D", "config": {"name": "conv_dw_3", "trainable": false, "dtype": "float32", "kernel_size": [3, 3], "strides": [1, 1], "padding": "same", "data_format": "channels_last", "dilation_rate": [1, 1], "activation": "linear", "use_bias": false, "bias_initializer": {"class_name": "Zeros", "config": {"dtype": "float32"}}, "bias_regularizer": null, "activity_regularizer": null, "bias_constraint": null, "depth_multiplier": 1, "depthwise_initializer": {"class_name": "GlorotUniform", "config": {"seed": null, "dtype": "float32"}}, "depthwise_regularizer": null, "depthwise_constraint": null}, "inbound_nodes": [[["conv_pw_2_relu", 0, 0, {}]]]}, {"name": "conv_dw_3_bn", "class_name": "BatchNormalization", "config": {"name": "conv_dw_3_bn", "trainable": false, "dtype": "float32", "axis": [3], "momentum": 0.99, "epsilon": 0.001, "center": true, "scale": true, "beta_initializer": {"class_name": "Zeros", "config": {"dtype": "float32"}}, "gamma_initializer": {"class_name": "Ones", "config": {"dtype": "float32"}}, "moving_mean_initializer": {"class_name": "Zeros", "config": {"dtype": "float32"}}, "moving_variance_initializer": {"class_name": "Ones", "config": {"dtype": "float32"}}, "beta_regularizer": null, "gamma_regularizer": null, "beta_constraint": null, "gamma_constraint": null}, "inbound_nodes": [[["conv_dw_3", 0, 0, {}]]]}, {"name": "conv_dw_3_relu", "class_name": "ReLU", "config": {"name": "conv_dw_3_relu", "trainable": false, "dtype": "float32", "max_value": 6.0, "negative_slope": 0.0, "threshold": 0.0}, "inbound_nodes": [[["conv_dw_3_bn", 0, 0, {}]]]}, {"name": "conv_pw_3", "class_name": "Conv2D", "config": {"name": "conv_pw_3", "trainable": false, "dtype": "float32", "filters": 128, "kernel_size": [1, 1], "strides": [1, 1], "padding": "same", "data_format": "channels_last", "dilation_rate": [1, 1], "activation": "linear", "use_bias": false, "kernel_initializer": {"class_name": "GlorotUniform", "config": {"seed": null, "dtype": "float32"}}, "bias_initializer": {"class_name": "Zeros", "config": {"dtype": "float32"}}, "kernel_regularizer": null, "bias_regularizer": null, "activity_regularizer": null, "kernel_constraint": null, "bias_constraint": null}, "inbound_nodes": [[["conv_dw_3_relu", 0, 0, {}]]]}, {"name": "conv_pw_3_bn", "class_name": "BatchNormalization", "config": {"name": "conv_pw_3_bn", "trainable": false, "dtype": "float32", "axis": [3], "momentum": 0.99, "epsilon": 0.001, "center": true, "scale": true, "beta_initializer": {"class_name": "Zeros", "config": {"dtype": "float32"}}, "gamma_initializer": {"class_name": "Ones", "config": {"dtype": "float32"}}, "moving_mean_initializer": {"class_name": "Zeros", "config": {"dtype": "float32"}}, "moving_variance_initializer": {"class_name": "Ones", "config": {"dtype": "float32"}}, "beta_regularizer": null, "gamma_regularizer": null, "beta_constraint": null, "gamma_constraint": null}, "inbound_nodes": [[["conv_pw_3", 0, 0, {}]]]}, {"name": "conv_pw_3_relu", "class_name": "ReLU", "config": {"name": "conv_pw_3_relu", "trainable": false, "dtype": "float32", "max_value": 6.0, "negative_slope": 0.0, "threshold": 0.0}, "inbound_nodes": [[["conv_pw_3_bn", 0, 0, {}]]]}, {"name": "conv_pad_4", "class_name": "ZeroPadding2D", "config": {"name": "conv_pad_4", "trainable": false, "dtype": "float32", "padding": [[0, 1], [0, 1]], "data_format": "channels_last"}, "inbound_nodes": [[["conv_pw_3_relu", 0, 0, {}]]]}, {"name": "conv_dw_4", "class_name": "DepthwiseConv2D", "config": {"name": "conv_dw_4", "trainable": false, "dtype": "float32", "kernel_size": [3, 3], "strides": [2, 2], "padding": "valid", "data_format": "channels_last", "dilation_rate": [1, 1], "activation": "linear", "use_bias": false, "bias_initializer": {"class_name": "Zeros", "config": {"dtype": "float32"}}, "bias_regularizer": null, "activity_regularizer": null, "bias_constraint": null, "depth_multiplier": 1, "depthwise_initializer": {"class_name": "GlorotUniform", "config": {"seed": null, "dtype": "float32"}}, "depthwise_regularizer": null, "depthwise_constraint": null}, "inbound_nodes": [[["conv_pad_4", 0, 0, {}]]]}, {"name": "conv_dw_4_bn", "class_name": "BatchNormalization", "config": {"name": "conv_dw_4_bn", "trainable": false, "dtype": "float32", "axis": [3], "momentum": 0.99, "epsilon": 0.001, "center": true, "scale": true, "beta_initializer": {"class_name": "Zeros", "config": {"dtype": "float32"}}, "gamma_initializer": {"class_name": "Ones", "config": {"dtype": "float32"}}, "moving_mean_initializer": {"class_name": "Zeros", "config": {"dtype": "float32"}}, "moving_variance_initializer": {"class_name": "Ones", "config": {"dtype": "float32"}}, "beta_regularizer": null, "gamma_regularizer": null, "beta_constraint": null, "gamma_constraint": null}, "inbound_nodes": [[["conv_dw_4", 0, 0, {}]]]}, {"name": "conv_dw_4_relu", "class_name": "ReLU", "config": {"name": "conv_dw_4_relu", "trainable": false, "dtype": "float32", "max_value": 6.0, "negative_slope": 0.0, "threshold": 0.0}, "inbound_nodes": [[["conv_dw_4_bn", 0, 0, {}]]]}, {"name": "conv_pw_4", "class_name": "Conv2D", "config": {"name": "conv_pw_4", "trainable": false, "dtype": "float32", "filters": 256, "kernel_size": [1, 1], "strides": [1, 1], "padding": "same", "data_format": "channels_last", "dilation_rate": [1, 1], "activation": "linear", "use_bias": false, "kernel_initializer": {"class_name": "GlorotUniform", "config": {"seed": null, "dtype": "float32"}}, "bias_initializer": {"class_name": "Zeros", "config": {"dtype": "float32"}}, "kernel_regularizer": null, "bias_regularizer": null, "activity_regularizer": null, "kernel_constraint": null, "bias_constraint": null}, "inbound_nodes": [[["conv_dw_4_relu", 0, 0, {}]]]}, {"name": "conv_pw_4_bn", "class_name": "BatchNormalization", "config": {"name": "conv_pw_4_bn", "trainable": false, "dtype": "float32", "axis": [3], "momentum": 0.99, "epsilon": 0.001, "center": true, "scale": true, "beta_initializer": {"class_name": "Zeros", "config": {"dtype": "float32"}}, "gamma_initializer": {"class_name": "Ones", "config": {"dtype": "float32"}}, "moving_mean_initializer": {"class_name": "Zeros", "config": {"dtype": "float32"}}, "moving_variance_initializer": {"class_name": "Ones", "config": {"dtype": "float32"}}, "beta_regularizer": null, "gamma_regularizer": null, "beta_constraint": null, "gamma_constraint": null}, "inbound_nodes": [[["conv_pw_4", 0, 0, {}]]]}, {"name": "conv_pw_4_relu", "class_name": "ReLU", "config": {"name": "conv_pw_4_relu", "trainable": false, "dtype": "float32", "max_value": 6.0, "negative_slope": 0.0, "threshold": 0.0}, "inbound_nodes": [[["conv_pw_4_bn", 0, 0, {}]]]}, {"name": "conv_dw_5", "class_name": "DepthwiseConv2D", "config": {"name": "conv_dw_5", "trainable": false, "dtype": "float32", "kernel_size": [3, 3], "strides": [1, 1], "padding": "same", "data_format": "channels_last", "dilation_rate": [1, 1], "activation": "linear", "use_bias": false, "bias_initializer": {"class_name": "Zeros", "config": {"dtype": "float32"}}, "bias_regularizer": null, "activity_regularizer": null, "bias_constraint": null, "depth_multiplier": 1, "depthwise_initializer": {"class_name": "GlorotUniform", "config": {"seed": null, "dtype": "float32"}}, "depthwise_regularizer": null, "depthwise_constraint": null}, "inbound_nodes": [[["conv_pw_4_relu", 0, 0, {}]]]}, {"name": "conv_dw_5_bn", "class_name": "BatchNormalization", "config": {"name": "conv_dw_5_bn", "trainable": false, "dtype": "float32", "axis": [3], "momentum": 0.99, "epsilon": 0.001, "center": true, "scale": true, "beta_initializer": {"class_name": "Zeros", "config": {"dtype": "float32"}}, "gamma_initializer": {"class_name": "Ones", "config": {"dtype": "float32"}}, "moving_mean_initializer": {"class_name": "Zeros", "config": {"dtype": "float32"}}, "moving_variance_initializer": {"class_name": "Ones", "config": {"dtype": "float32"}}, "beta_regularizer": null, "gamma_regularizer": null, "beta_constraint": null, "gamma_constraint": null}, "inbound_nodes": [[["conv_dw_5", 0, 0, {}]]]}, {"name": "conv_dw_5_relu", "class_name": "ReLU", "config": {"name": "conv_dw_5_relu", "trainable": false, "dtype": "float32", "max_value": 6.0, "negative_slope": 0.0, "threshold": 0.0}, "inbound_nodes": [[["conv_dw_5_bn", 0, 0, {}]]]}, {"name": "conv_pw_5", "class_name": "Conv2D", "config": {"name": "conv_pw_5", "trainable": false, "dtype": "float32", "filters": 256, "kernel_size": [1, 1], "strides": [1, 1], "padding": "same", "data_format": "channels_last", "dilation_rate": [1, 1], "activation": "linear", "use_bias": false, "kernel_initializer": {"class_name": "GlorotUniform", "config": {"seed": null, "dtype": "float32"}}, "bias_initializer": {"class_name": "Zeros", "config": {"dtype": "float32"}}, "kernel_regularizer": null, "bias_regularizer": null, "activity_regularizer": null, "kernel_constraint": null, "bias_constraint": null}, "inbound_nodes": [[["conv_dw_5_relu", 0, 0, {}]]]}, {"name": "conv_pw_5_bn", "class_name": "BatchNormalization", "config": {"name": "conv_pw_5_bn", "trainable": false, "dtype": "float32", "axis": [3], "momentum": 0.99, "epsilon": 0.001, "center": true, "scale": true, "beta_initializer": {"class_name": "Zeros", "config": {"dtype": "float32"}}, "gamma_initializer": {"class_name": "Ones", "config": {"dtype": "float32"}}, "moving_mean_initializer": {"class_name": "Zeros", "config": {"dtype": "float32"}}, "moving_variance_initializer": {"class_name": "Ones", "config": {"dtype": "float32"}}, "beta_regularizer": null, "gamma_regularizer": null, "beta_constraint": null, "gamma_constraint": null}, "inbound_nodes": [[["conv_pw_5", 0, 0, {}]]]}, {"name": "conv_pw_5_relu", "class_name": "ReLU", "config": {"name": "conv_pw_5_relu", "trainable": false, "dtype": "float32", "max_value": 6.0, "negative_slope": 0.0, "threshold": 0.0}, "inbound_nodes": [[["conv_pw_5_bn", 0, 0, {}]]]}, {"name": "conv_pad_6", "class_name": "ZeroPadding2D", "config": {"name": "conv_pad_6", "trainable": false, "dtype": "float32", "padding": [[0, 1], [0, 1]], "data_format": "channels_last"}, "inbound_nodes": [[["conv_pw_5_relu", 0, 0, {}]]]}, {"name": "conv_dw_6", "class_name": "DepthwiseConv2D", "config": {"name": "conv_dw_6", "trainable": false, "dtype": "float32", "kernel_size": [3, 3], "strides": [2, 2], "padding": "valid", "data_format": "channels_last", "dilation_rate": [1, 1], "activation": "linear", "use_bias": false, "bias_initializer": {"class_name": "Zeros", "config": {"dtype": "float32"}}, "bias_regularizer": null, "activity_regularizer": null, "bias_constraint": null, "depth_multiplier": 1, "depthwise_initializer": {"class_name": "GlorotUniform", "config": {"seed": null, "dtype": "float32"}}, "depthwise_regularizer": null, "depthwise_constraint": null}, "inbound_nodes": [[["conv_pad_6", 0, 0, {}]]]}, {"name": "conv_dw_6_bn", "class_name": "BatchNormalization", "config": {"name": "conv_dw_6_bn", "trainable": false, "dtype": "float32", "axis": [3], "momentum": 0.99, "epsilon": 0.001, "center": true, "scale": true, "beta_initializer": {"class_name": "Zeros", "config": {"dtype": "float32"}}, "gamma_initializer": {"class_name": "Ones", "config": {"dtype": "float32"}}, "moving_mean_initializer": {"class_name": "Zeros", "config": {"dtype": "float32"}}, "moving_variance_initializer": {"class_name": "Ones", "config": {"dtype": "float32"}}, "beta_regularizer": null, "gamma_regularizer": null, "beta_constraint": null, "gamma_constraint": null}, "inbound_nodes": [[["conv_dw_6", 0, 0, {}]]]}, {"name": "conv_dw_6_relu", "class_name": "ReLU", "config": {"name": "conv_dw_6_relu", "trainable": false, "dtype": "float32", "max_value": 6.0, "negative_slope": 0.0, "threshold": 0.0}, "inbound_nodes": [[["conv_dw_6_bn", 0, 0, {}]]]}, {"name": "conv_pw_6", "class_name": "Conv2D", "config": {"name": "conv_pw_6", "trainable": false, "dtype": "float32", "filters": 512, "kernel_size": [1, 1], "strides": [1, 1], "padding": "same", "data_format": "channels_last", "dilation_rate": [1, 1], "activation": "linear", "use_bias": false, "kernel_initializer": {"class_name": "GlorotUniform", "config": {"seed": null, "dtype": "float32"}}, "bias_initializer": {"class_name": "Zeros", "config": {"dtype": "float32"}}, "kernel_regularizer": null, "bias_regularizer": null, "activity_regularizer": null, "kernel_constraint": null, "bias_constraint": null}, "inbound_nodes": [[["conv_dw_6_relu", 0, 0, {}]]]}, {"name": "conv_pw_6_bn", "class_name": "BatchNormalization", "config": {"name": "conv_pw_6_bn", "trainable": false, "dtype": "float32", "axis": [3], "momentum": 0.99, "epsilon": 0.001, "center": true, "scale": true, "beta_initializer": {"class_name": "Zeros", "config": {"dtype": "float32"}}, "gamma_initializer": {"class_name": "Ones", "config": {"dtype": "float32"}}, "moving_mean_initializer": {"class_name": "Zeros", "config": {"dtype": "float32"}}, "moving_variance_initializer": {"class_name": "Ones", "config": {"dtype": "float32"}}, "beta_regularizer": null, "gamma_regularizer": null, "beta_constraint": null, "gamma_constraint": null}, "inbound_nodes": [[["conv_pw_6", 0, 0, {}]]]}, {"name": "conv_pw_6_relu", "class_name": "ReLU", "config": {"name": "conv_pw_6_relu", "trainable": false, "dtype": "float32", "max_value": 6.0, "negative_slope": 0.0, "threshold": 0.0}, "inbound_nodes": [[["conv_pw_6_bn", 0, 0, {}]]]}, {"name": "conv_dw_7", "class_name": "DepthwiseConv2D", "config": {"name": "conv_dw_7", "trainable": false, "dtype": "float32", "kernel_size": [3, 3], "strides": [1, 1], "padding": "same", "data_format": "channels_last", "dilation_rate": [1, 1], "activation": "linear", "use_bias": false, "bias_initializer": {"class_name": "Zeros", "config": {"dtype": "float32"}}, "bias_regularizer": null, "activity_regularizer": null, "bias_constraint": null, "depth_multiplier": 1, "depthwise_initializer": {"class_name": "GlorotUniform", "config": {"seed": null, "dtype": "float32"}}, "depthwise_regularizer": null, "depthwise_constraint": null}, "inbound_nodes": [[["conv_pw_6_relu", 0, 0, {}]]]}, {"name": "conv_dw_7_bn", "class_name": "BatchNormalization", "config": {"name": "conv_dw_7_bn", "trainable": false, "dtype": "float32", "axis": [3], "momentum": 0.99, "epsilon": 0.001, "center": true, "scale": true, "beta_initializer": {"class_name": "Zeros", "config": {"dtype": "float32"}}, "gamma_initializer": {"class_name": "Ones", "config": {"dtype": "float32"}}, "moving_mean_initializer": {"class_name": "Zeros", "config": {"dtype": "float32"}}, "moving_variance_initializer": {"class_name": "Ones", "config": {"dtype": "float32"}}, "beta_regularizer": null, "gamma_regularizer": null, "beta_constraint": null, "gamma_constraint": null}, "inbound_nodes": [[["conv_dw_7", 0, 0, {}]]]}, {"name": "conv_dw_7_relu", "class_name": "ReLU", "config": {"name": "conv_dw_7_relu", "trainable": false, "dtype": "float32", "max_value": 6.0, "negative_slope": 0.0, "threshold": 0.0}, "inbound_nodes": [[["conv_dw_7_bn", 0, 0, {}]]]}, {"name": "conv_pw_7", "class_name": "Conv2D", "config": {"name": "conv_pw_7", "trainable": false, "dtype": "float32", "filters": 512, "kernel_size": [1, 1], "strides": [1, 1], "padding": "same", "data_format": "channels_last", "dilation_rate": [1, 1], "activation": "linear", "use_bias": false, "kernel_initializer": {"class_name": "GlorotUniform", "config": {"seed": null, "dtype": "float32"}}, "bias_initializer": {"class_name": "Zeros", "config": {"dtype": "float32"}}, "kernel_regularizer": null, "bias_regularizer": null, "activity_regularizer": null, "kernel_constraint": null, "bias_constraint": null}, "inbound_nodes": [[["conv_dw_7_relu", 0, 0, {}]]]}, {"name": "conv_pw_7_bn", "class_name": "BatchNormalization", "config": {"name": "conv_pw_7_bn", "trainable": false, "dtype": "float32", "axis": [3], "momentum": 0.99, "epsilon": 0.001, "center": true, "scale": true, "beta_initializer": {"class_name": "Zeros", "config": {"dtype": "float32"}}, "gamma_initializer": {"class_name": "Ones", "config": {"dtype": "float32"}}, "moving_mean_initializer": {"class_name": "Zeros", "config": {"dtype": "float32"}}, "moving_variance_initializer": {"class_name": "Ones", "config": {"dtype": "float32"}}, "beta_regularizer": null, "gamma_regularizer": null, "beta_constraint": null, "gamma_constraint": null}, "inbound_nodes": [[["conv_pw_7", 0, 0, {}]]]}, {"name": "conv_pw_7_relu", "class_name": "ReLU", "config": {"name": "conv_pw_7_relu", "trainable": false, "dtype": "float32", "max_value": 6.0, "negative_slope": 0.0, "threshold": 0.0}, "inbound_nodes": [[["conv_pw_7_bn", 0, 0, {}]]]}, {"name": "conv_dw_8", "class_name": "DepthwiseConv2D", "config": {"name": "conv_dw_8", "trainable": false, "dtype": "float32", "kernel_size": [3, 3], "strides": [1, 1], "padding": "same", "data_format": "channels_last", "dilation_rate": [1, 1], "activation": "linear", "use_bias": false, "bias_initializer": {"class_name": "Zeros", "config": {"dtype": "float32"}}, "bias_regularizer": null, "activity_regularizer": null, "bias_constraint": null, "depth_multiplier": 1, "depthwise_initializer": {"class_name": "GlorotUniform", "config": {"seed": null, "dtype": "float32"}}, "depthwise_regularizer": null, "depthwise_constraint": null}, "inbound_nodes": [[["conv_pw_7_relu", 0, 0, {}]]]}, {"name": "conv_dw_8_bn", "class_name": "BatchNormalization", "config": {"name": "conv_dw_8_bn", "trainable": false, "dtype": "float32", "axis": [3], "momentum": 0.99, "epsilon": 0.001, "center": true, "scale": true, "beta_initializer": {"class_name": "Zeros", "config": {"dtype": "float32"}}, "gamma_initializer": {"class_name": "Ones", "config": {"dtype": "float32"}}, "moving_mean_initializer": {"class_name": "Zeros", "config": {"dtype": "float32"}}, "moving_variance_initializer": {"class_name": "Ones", "config": {"dtype": "float32"}}, "beta_regularizer": null, "gamma_regularizer": null, "beta_constraint": null, "gamma_constraint": null}, "inbound_nodes": [[["conv_dw_8", 0, 0, {}]]]}, {"name": "conv_dw_8_relu", "class_name": "ReLU", "config": {"name": "conv_dw_8_relu", "trainable": false, "dtype": "float32", "max_value": 6.0, "negative_slope": 0.0, "threshold": 0.0}, "inbound_nodes": [[["conv_dw_8_bn", 0, 0, {}]]]}, {"name": "conv_pw_8", "class_name": "Conv2D", "config": {"name": "conv_pw_8", "trainable": false, "dtype": "float32", "filters": 512, "kernel_size": [1, 1], "strides": [1, 1], "padding": "same", "data_format": "channels_last", "dilation_rate": [1, 1], "activation": "linear", "use_bias": false, "kernel_initializer": {"class_name": "GlorotUniform", "config": {"seed": null, "dtype": "float32"}}, "bias_initializer": {"class_name": "Zeros", "config": {"dtype": "float32"}}, "kernel_regularizer": null, "bias_regularizer": null, "activity_regularizer": null, "kernel_constraint": null, "bias_constraint": null}, "inbound_nodes": [[["conv_dw_8_relu", 0, 0, {}]]]}, {"name": "conv_pw_8_bn", "class_name": "BatchNormalization", "config": {"name": "conv_pw_8_bn", "trainable": false, "dtype": "float32", "axis": [3], "momentum": 0.99, "epsilon": 0.001, "center": true, "scale": true, "beta_initializer": {"class_name": "Zeros", "config": {"dtype": "float32"}}, "gamma_initializer": {"class_name": "Ones", "config": {"dtype": "float32"}}, "moving_mean_initializer": {"class_name": "Zeros", "config": {"dtype": "float32"}}, "moving_variance_initializer": {"class_name": "Ones", "config": {"dtype": "float32"}}, "beta_regularizer": null, "gamma_regularizer": null, "beta_constraint": null, "gamma_constraint": null}, "inbound_nodes": [[["conv_pw_8", 0, 0, {}]]]}, {"name": "conv_pw_8_relu", "class_name": "ReLU", "config": {"name": "conv_pw_8_relu", "trainable": false, "dtype": "float32", "max_value": 6.0, "negative_slope": 0.0, "threshold": 0.0}, "inbound_nodes": [[["conv_pw_8_bn", 0, 0, {}]]]}, {"name": "conv_dw_9", "class_name": "DepthwiseConv2D", "config": {"name": "conv_dw_9", "trainable": false, "dtype": "float32", "kernel_size": [3, 3], "strides": [1, 1], "padding": "same", "data_format": "channels_last", "dilation_rate": [1, 1], "activation": "linear", "use_bias": false, "bias_initializer": {"class_name": "Zeros", "config": {"dtype": "float32"}}, "bias_regularizer": null, "activity_regularizer": null, "bias_constraint": null, "depth_multiplier": 1, "depthwise_initializer": {"class_name": "GlorotUniform", "config": {"seed": null, "dtype": "float32"}}, "depthwise_regularizer": null, "depthwise_constraint": null}, "inbound_nodes": [[["conv_pw_8_relu", 0, 0, {}]]]}, {"name": "conv_dw_9_bn", "class_name": "BatchNormalization", "config": {"name": "conv_dw_9_bn", "trainable": false, "dtype": "float32", "axis": [3], "momentum": 0.99, "epsilon": 0.001, "center": true, "scale": true, "beta_initializer": {"class_name": "Zeros", "config": {"dtype": "float32"}}, "gamma_initializer": {"class_name": "Ones", "config": {"dtype": "float32"}}, "moving_mean_initializer": {"class_name": "Zeros", "config": {"dtype": "float32"}}, "moving_variance_initializer": {"class_name": "Ones", "config": {"dtype": "float32"}}, "beta_regularizer": null, "gamma_regularizer": null, "beta_constraint": null, "gamma_constraint": null}, "inbound_nodes": [[["conv_dw_9", 0, 0, {}]]]}, {"name": "conv_dw_9_relu", "class_name": "ReLU", "config": {"name": "conv_dw_9_relu", "trainable": false, "dtype": "float32", "max_value": 6.0, "negative_slope": 0.0, "threshold": 0.0}, "inbound_nodes": [[["conv_dw_9_bn", 0, 0, {}]]]}, {"name": "conv_pw_9", "class_name": "Conv2D", "config": {"name": "conv_pw_9", "trainable": false, "dtype": "float32", "filters": 512, "kernel_size": [1, 1], "strides": [1, 1], "padding": "same", "data_format": "channels_last", "dilation_rate": [1, 1], "activation": "linear", "use_bias": false, "kernel_initializer": {"class_name": "GlorotUniform", "config": {"seed": null, "dtype": "float32"}}, "bias_initializer": {"class_name": "Zeros", "config": {"dtype": "float32"}}, "kernel_regularizer": null, "bias_regularizer": null, "activity_regularizer": null, "kernel_constraint": null, "bias_constraint": null}, "inbound_nodes": [[["conv_dw_9_relu", 0, 0, {}]]]}, {"name": "conv_pw_9_bn", "class_name": "BatchNormalization", "config": {"name": "conv_pw_9_bn", "trainable": false, "dtype": "float32", "axis": [3], "momentum": 0.99, "epsilon": 0.001, "center": true, "scale": true, "beta_initializer": {"class_name": "Zeros", "config": {"dtype": "float32"}}, "gamma_initializer": {"class_name": "Ones", "config": {"dtype": "float32"}}, "moving_mean_initializer": {"class_name": "Zeros", "config": {"dtype": "float32"}}, "moving_variance_initializer": {"class_name": "Ones", "config": {"dtype": "float32"}}, "beta_regularizer": null, "gamma_regularizer": null, "beta_constraint": null, "gamma_constraint": null}, "inbound_nodes": [[["conv_pw_9", 0, 0, {}]]]}, {"name": "conv_pw_9_relu", "class_name": "ReLU", "config": {"name": "conv_pw_9_relu", "trainable": false, "dtype": "float32", "max_value": 6.0, "negative_slope": 0.0, "threshold": 0.0}, "inbound_nodes": [[["conv_pw_9_bn", 0, 0, {}]]]}, {"name": "conv_dw_10", "class_name": "DepthwiseConv2D", "config": {"name": "conv_dw_10", "trainable": false, "dtype": "float32", "kernel_size": [3, 3], "strides": [1, 1], "padding": "same", "data_format": "channels_last", "dilation_rate": [1, 1], "activation": "linear", "use_bias": false, "bias_initializer": {"class_name": "Zeros", "config": {"dtype": "float32"}}, "bias_regularizer": null, "activity_regularizer": null, "bias_constraint": null, "depth_multiplier": 1, "depthwise_initializer": {"class_name": "GlorotUniform", "config": {"seed": null, "dtype": "float32"}}, "depthwise_regularizer": null, "depthwise_constraint": null}, "inbound_nodes": [[["conv_pw_9_relu", 0, 0, {}]]]}, {"name": "conv_dw_10_bn", "class_name": "BatchNormalization", "config": {"name": "conv_dw_10_bn", "trainable": false, "dtype": "float32", "axis": [3], "momentum": 0.99, "epsilon": 0.001, "center": true, "scale": true, "beta_initializer": {"class_name": "Zeros", "config": {"dtype": "float32"}}, "gamma_initializer": {"class_name": "Ones", "config": {"dtype": "float32"}}, "moving_mean_initializer": {"class_name": "Zeros", "config": {"dtype": "float32"}}, "moving_variance_initializer": {"class_name": "Ones", "config": {"dtype": "float32"}}, "beta_regularizer": null, "gamma_regularizer": null, "beta_constraint": null, "gamma_constraint": null}, "inbound_nodes": [[["conv_dw_10", 0, 0, {}]]]}, {"name": "conv_dw_10_relu", "class_name": "ReLU", "config": {"name": "conv_dw_10_relu", "trainable": false, "dtype": "float32", "max_value": 6.0, "negative_slope": 0.0, "threshold": 0.0}, "inbound_nodes": [[["conv_dw_10_bn", 0, 0, {}]]]}, {"name": "conv_pw_10", "class_name": "Conv2D", "config": {"name": "conv_pw_10", "trainable": false, "dtype": "float32", "filters": 512, "kernel_size": [1, 1], "strides": [1, 1], "padding": "same", "data_format": "channels_last", "dilation_rate": [1, 1], "activation": "linear", "use_bias": false, "kernel_initializer": {"class_name": "GlorotUniform", "config": {"seed": null, "dtype": "float32"}}, "bias_initializer": {"class_name": "Zeros", "config": {"dtype": "float32"}}, "kernel_regularizer": null, "bias_regularizer": null, "activity_regularizer": null, "kernel_constraint": null, "bias_constraint": null}, "inbound_nodes": [[["conv_dw_10_relu", 0, 0, {}]]]}, {"name": "conv_pw_10_bn", "class_name": "BatchNormalization", "config": {"name": "conv_pw_10_bn", "trainable": false, "dtype": "float32", "axis": [3], "momentum": 0.99, "epsilon": 0.001, "center": true, "scale": true, "beta_initializer": {"class_name": "Zeros", "config": {"dtype": "float32"}}, "gamma_initializer": {"class_name": "Ones", "config": {"dtype": "float32"}}, "moving_mean_initializer": {"class_name": "Zeros", "config": {"dtype": "float32"}}, "moving_variance_initializer": {"class_name": "Ones", "config": {"dtype": "float32"}}, "beta_regularizer": null, "gamma_regularizer": null, "beta_constraint": null, "gamma_constraint": null}, "inbound_nodes": [[["conv_pw_10", 0, 0, {}]]]}, {"name": "conv_pw_10_relu", "class_name": "ReLU", "config": {"name": "conv_pw_10_relu", "trainable": false, "dtype": "float32", "max_value": 6.0, "negative_slope": 0.0, "threshold": 0.0}, "inbound_nodes": [[["conv_pw_10_bn", 0, 0, {}]]]}, {"name": "conv_dw_11", "class_name": "DepthwiseConv2D", "config": {"name": "conv_dw_11", "trainable": false, "dtype": "float32", "kernel_size": [3, 3], "strides": [1, 1], "padding": "same", "data_format": "channels_last", "dilation_rate": [1, 1], "activation": "linear", "use_bias": false, "bias_initializer": {"class_name": "Zeros", "config": {"dtype": "float32"}}, "bias_regularizer": null, "activity_regularizer": null, "bias_constraint": null, "depth_multiplier": 1, "depthwise_initializer": {"class_name": "GlorotUniform", "config": {"seed": null, "dtype": "float32"}}, "depthwise_regularizer": null, "depthwise_constraint": null}, "inbound_nodes": [[["conv_pw_10_relu", 0, 0, {}]]]}, {"name": "conv_dw_11_bn", "class_name": "BatchNormalization", "config": {"name": "conv_dw_11_bn", "trainable": false, "dtype": "float32", "axis": [3], "momentum": 0.99, "epsilon": 0.001, "center": true, "scale": true, "beta_initializer": {"class_name": "Zeros", "config": {"dtype": "float32"}}, "gamma_initializer": {"class_name": "Ones", "config": {"dtype": "float32"}}, "moving_mean_initializer": {"class_name": "Zeros", "config": {"dtype": "float32"}}, "moving_variance_initializer": {"class_name": "Ones", "config": {"dtype": "float32"}}, "beta_regularizer": null, "gamma_regularizer": null, "beta_constraint": null, "gamma_constraint": null}, "inbound_nodes": [[["conv_dw_11", 0, 0, {}]]]}, {"name": "conv_dw_11_relu", "class_name": "ReLU", "config": {"name": "conv_dw_11_relu", "trainable": false, "dtype": "float32", "max_value": 6.0, "negative_slope": 0.0, "threshold": 0.0}, "inbound_nodes": [[["conv_dw_11_bn", 0, 0, {}]]]}, {"name": "conv_pw_11", "class_name": "Conv2D", "config": {"name": "conv_pw_11", "trainable": false, "dtype": "float32", "filters": 512, "kernel_size": [1, 1], "strides": [1, 1], "padding": "same", "data_format": "channels_last", "dilation_rate": [1, 1], "activation": "linear", "use_bias": false, "kernel_initializer": {"class_name": "GlorotUniform", "config": {"seed": null, "dtype": "float32"}}, "bias_initializer": {"class_name": "Zeros", "config": {"dtype": "float32"}}, "kernel_regularizer": null, "bias_regularizer": null, "activity_regularizer": null, "kernel_constraint": null, "bias_constraint": null}, "inbound_nodes": [[["conv_dw_11_relu", 0, 0, {}]]]}, {"name": "conv_pw_11_bn", "class_name": "BatchNormalization", "config": {"name": "conv_pw_11_bn", "trainable": false, "dtype": "float32", "axis": [3], "momentum": 0.99, "epsilon": 0.001, "center": true, "scale": true, "beta_initializer": {"class_name": "Zeros", "config": {"dtype": "float32"}}, "gamma_initializer": {"class_name": "Ones", "config": {"dtype": "float32"}}, "moving_mean_initializer": {"class_name": "Zeros", "config": {"dtype": "float32"}}, "moving_variance_initializer": {"class_name": "Ones", "config": {"dtype": "float32"}}, "beta_regularizer": null, "gamma_regularizer": null, "beta_constraint": null, "gamma_constraint": null}, "inbound_nodes": [[["conv_pw_11", 0, 0, {}]]]}, {"name": "conv_pw_11_relu", "class_name": "ReLU", "config": {"name": "conv_pw_11_relu", "trainable": false, "dtype": "float32", "max_value": 6.0, "negative_slope": 0.0, "threshold": 0.0}, "inbound_nodes": [[["conv_pw_11_bn", 0, 0, {}]]]}, {"name": "conv_pad_12", "class_name": "ZeroPadding2D", "config": {"name": "conv_pad_12", "trainable": false, "dtype": "float32", "padding": [[0, 1], [0, 1]], "data_format": "channels_last"}, "inbound_nodes": [[["conv_pw_11_relu", 0, 0, {}]]]}, {"name": "conv_dw_12", "class_name": "DepthwiseConv2D", "config": {"name": "conv_dw_12", "trainable": false, "dtype": "float32", "kernel_size": [3, 3], "strides": [2, 2], "padding": "valid", "data_format": "channels_last", "dilation_rate": [1, 1], "activation": "linear", "use_bias": false, "bias_initializer": {"class_name": "Zeros", "config": {"dtype": "float32"}}, "bias_regularizer": null, "activity_regularizer": null, "bias_constraint": null, "depth_multiplier": 1, "depthwise_initializer": {"class_name": "GlorotUniform", "config": {"seed": null, "dtype": "float32"}}, "depthwise_regularizer": null, "depthwise_constraint": null}, "inbound_nodes": [[["conv_pad_12", 0, 0, {}]]]}, {"name": "conv_dw_12_bn", "class_name": "BatchNormalization", "config": {"name": "conv_dw_12_bn", "trainable": false, "dtype": "float32", "axis": [3], "momentum": 0.99, "epsilon": 0.001, "center": true, "scale": true, "beta_initializer": {"class_name": "Zeros", "config": {"dtype": "float32"}}, "gamma_initializer": {"class_name": "Ones", "config": {"dtype": "float32"}}, "moving_mean_initializer": {"class_name": "Zeros", "config": {"dtype": "float32"}}, "moving_variance_initializer": {"class_name": "Ones", "config": {"dtype": "float32"}}, "beta_regularizer": null, "gamma_regularizer": null, "beta_constraint": null, "gamma_constraint": null}, "inbound_nodes": [[["conv_dw_12", 0, 0, {}]]]}, {"name": "conv_dw_12_relu", "class_name": "ReLU", "config": {"name": "conv_dw_12_relu", "trainable": false, "dtype": "float32", "max_value": 6.0, "negative_slope": 0.0, "threshold": 0.0}, "inbound_nodes": [[["conv_dw_12_bn", 0, 0, {}]]]}, {"name": "conv_pw_12", "class_name": "Conv2D", "config": {"name": "conv_pw_12", "trainable": false, "dtype": "float32", "filters": 1024, "kernel_size": [1, 1], "strides": [1, 1], "padding": "same", "data_format": "channels_last", "dilation_rate": [1, 1], "activation": "linear", "use_bias": false, "kernel_initializer": {"class_name": "GlorotUniform", "config": {"seed": null, "dtype": "float32"}}, "bias_initializer": {"class_name": "Zeros", "config": {"dtype": "float32"}}, "kernel_regularizer": null, "bias_regularizer": null, "activity_regularizer": null, "kernel_constraint": null, "bias_constraint": null}, "inbound_nodes": [[["conv_dw_12_relu", 0, 0, {}]]]}, {"name": "conv_pw_12_bn", "class_name": "BatchNormalization", "config": {"name": "conv_pw_12_bn", "trainable": false, "dtype": "float32", "axis": [3], "momentum": 0.99, "epsilon": 0.001, "center": true, "scale": true, "beta_initializer": {"class_name": "Zeros", "config": {"dtype": "float32"}}, "gamma_initializer": {"class_name": "Ones", "config": {"dtype": "float32"}}, "moving_mean_initializer": {"class_name": "Zeros", "config": {"dtype": "float32"}}, "moving_variance_initializer": {"class_name": "Ones", "config": {"dtype": "float32"}}, "beta_regularizer": null, "gamma_regularizer": null, "beta_constraint": null, "gamma_constraint": null}, "inbound_nodes": [[["conv_pw_12", 0, 0, {}]]]}, {"name": "conv_pw_12_relu", "class_name": "ReLU", "config": {"name": "conv_pw_12_relu", "trainable": false, "dtype": "float32", "max_value": 6.0, "negative_slope": 0.0, "threshold": 0.0}, "inbound_nodes": [[["conv_pw_12_bn", 0, 0, {}]]]}, {"name": "conv_dw_13", "class_name": "DepthwiseConv2D", "config": {"name": "conv_dw_13", "trainable": false, "dtype": "float32", "kernel_size": [3, 3], "strides": [1, 1], "padding": "same", "data_format": "channels_last", "dilation_rate": [1, 1], "activation": "linear", "use_bias": false, "bias_initializer": {"class_name": "Zeros", "config": {"dtype": "float32"}}, "bias_regularizer": null, "activity_regularizer": null, "bias_constraint": null, "depth_multiplier": 1, "depthwise_initializer": {"class_name": "GlorotUniform", "config": {"seed": null, "dtype": "float32"}}, "depthwise_regularizer": null, "depthwise_constraint": null}, "inbound_nodes": [[["conv_pw_12_relu", 0, 0, {}]]]}, {"name": "conv_dw_13_bn", "class_name": "BatchNormalization", "config": {"name": "conv_dw_13_bn", "trainable": false, "dtype": "float32", "axis": [3], "momentum": 0.99, "epsilon": 0.001, "center": true, "scale": true, "beta_initializer": {"class_name": "Zeros", "config": {"dtype": "float32"}}, "gamma_initializer": {"class_name": "Ones", "config": {"dtype": "float32"}}, "moving_mean_initializer": {"class_name": "Zeros", "config": {"dtype": "float32"}}, "moving_variance_initializer": {"class_name": "Ones", "config": {"dtype": "float32"}}, "beta_regularizer": null, "gamma_regularizer": null, "beta_constraint": null, "gamma_constraint": null}, "inbound_nodes": [[["conv_dw_13", 0, 0, {}]]]}, {"name": "conv_dw_13_relu", "class_name": "ReLU", "config": {"name": "conv_dw_13_relu", "trainable": false, "dtype": "float32", "max_value": 6.0, "negative_slope": 0.0, "threshold": 0.0}, "inbound_nodes": [[["conv_dw_13_bn", 0, 0, {}]]]}, {"name": "conv_pw_13", "class_name": "Conv2D", "config": {"name": "conv_pw_13", "trainable": false, "dtype": "float32", "filters": 1024, "kernel_size": [1, 1], "strides": [1, 1], "padding": "same", "data_format": "channels_last", "dilation_rate": [1, 1], "activation": "linear", "use_bias": false, "kernel_initializer": {"class_name": "GlorotUniform", "config": {"seed": null, "dtype": "float32"}}, "bias_initializer": {"class_name": "Zeros", "config": {"dtype": "float32"}}, "kernel_regularizer": null, "bias_regularizer": null, "activity_regularizer": null, "kernel_constraint": null, "bias_constraint": null}, "inbound_nodes": [[["conv_dw_13_relu", 0, 0, {}]]]}, {"name": "conv_pw_13_bn", "class_name": "BatchNormalization", "config": {"name": "conv_pw_13_bn", "trainable": true, "dtype": "float32", "axis": [3], "momentum": 0.99, "epsilon": 0.001, "center": true, "scale": true, "beta_initializer": {"class_name": "Zeros", "config": {"dtype": "float32"}}, "gamma_initializer": {"class_name": "Ones", "config": {"dtype": "float32"}}, "moving_mean_initializer": {"class_name": "Zeros", "config": {"dtype": "float32"}}, "moving_variance_initializer": {"class_name": "Ones", "config": {"dtype": "float32"}}, "beta_regularizer": null, "gamma_regularizer": null, "beta_constraint": null, "gamma_constraint": null}, "inbound_nodes": [[["conv_pw_13", 0, 0, {}]]]}, {"name": "conv_pw_13_relu", "class_name": "ReLU", "config": {"name": "conv_pw_13_relu", "trainable": true, "dtype": "float32", "max_value": 6.0, "negative_slope": 0.0, "threshold": 0.0}, "inbound_nodes": [[["conv_pw_13_bn", 0, 0, {}]]]}, {"name": "global_average_pooling2d", "class_name": "GlobalAveragePooling2D", "config": {"name": "global_average_pooling2d", "trainable": true, "dtype": "float32", "data_format": "channels_last"}, "inbound_nodes": [[["conv_pw_13_relu", 0, 0, {}]]]}, {"name": "dropout", "class_name": "Dropout", "config": {"name": "dropout", "trainable": true, "dtype": "float32", "rate": 0.4, "noise_shape": null, "seed": null}, "inbound_nodes": [[["global_average_pooling2d", 0, 0, {}]]]}, {"name": "dense", "class_name": "Dense", "config": {"name": "dense", "trainable": true, "dtype": "float32", "units": 120, "activation": "softmax", "use_bias": true, "kernel_initializer": {"class_name": "GlorotUniform", "config": {"seed": null, "dtype": "float32"}}, "bias_initializer": {"class_name": "Zeros", "config": {"dtype": "float32"}}, "kernel_regularizer": null, "bias_regularizer": null, "activity_regularizer": null, "kernel_constraint": null, "bias_constraint": null}, "inbound_nodes": [[["dropout", 0, 0, {}]]]}], "input_layers": [["input_1", 0, 0]], "output_layers": [["dense", 0, 0]]}}, "training_config": {"loss": "categorical_crossentropy", "metrics": ["accuracy"], "weighted_metrics": null, "sample_weight_mode": null, "loss_weights": null, "optimizer_config": {"class_name": "Adam", "config": {"name": "Adam", "learning_rate": 0.0010000000474974513, "decay": 0.0, "beta_1": 0.8999999761581421, "beta_2": 0.9990000128746033, "epsilon": 1e-07, "amsgrad": false}}}}, "weightsManifest": [{"paths": ["model_dog_classifier_mobilenet/group1-shard1of1.bin"], "weights": [{"name": "conv1/kernel", "shape": [3, 3, 3, 32], "dtype": "float32", "quantization": {"min": -0.8741726945428288, "scale": 0.006199806344275381, "dtype": "uint8"}}, {"name": "conv1_bn/gamma", "shape": [32], "dtype": "float32", "quantization": {"min": -0.25179232288809383, "scale": 0.01398846238267188, "dtype": "uint8"}}, {"name": "conv1_bn/beta", "shape": [32], "dtype": "float32", "quantization": {"min": -2.8671851859373203, "scale": 0.024932045095107134, "dtype": "uint8"}}, {"name": "conv1_bn/moving_mean", "shape": [32], "dtype": "float32", "quantization": {"min": -0.3129736446866802, "scale": 0.0025239810055377437, "dtype": "uint8"}}, {"name": "conv1_bn/moving_variance", "shape": [32], "dtype": "float32", "quantization": {"min": 1.8471396265094092e-25, "scale": 0.006992156832825904, "dtype": "uint8"}}, {"name": "conv_dw_1/depthwise_kernel", "shape": [3, 3, 32, 1], "dtype": "float32", "quantization": {"min": -30.629018207624846, "scale": 0.21418893851485907, "dtype": "uint8"}}, {"name": "conv_dw_10/depthwise_kernel", "shape": [3, 3, 512, 1], "dtype": "float32", "quantization": {"min": -5.119025421142578, "scale": 0.04128246307373047, "dtype": "uint8"}}, {"name": "conv_dw_10_bn/gamma", "shape": [512], "dtype": "float32", "quantization": {"min": 0.35066890716552734, "scale": 0.009156735738118489, "dtype": "uint8"}}, {"name": "conv_dw_10_bn/beta", "shape": [512], "dtype": "float32", "quantization": {"min": -3.9735474081600413, "scale": 0.03080269308651195, "dtype": "uint8"}}, {"name": "conv_dw_10_bn/moving_mean", "shape": [512], "dtype": "float32", "quantization": {"min": -19.37419208825803, "scale": 0.11070966907576019, "dtype": "uint8"}}, {"name": "conv_dw_10_bn/moving_variance", "shape": [512], "dtype": "float32", "quantization": {"min": 3.9175013759520595e-35, "scale": 0.24946413227156097, "dtype": "uint8"}}, {"name": "conv_dw_11/depthwise_kernel", "shape": [3, 3, 512, 1], "dtype": "float32", "quantization": {"min": -4.118517724205466, "scale": 0.037103763281130325, "dtype": "uint8"}}, {"name": "conv_dw_11_bn/gamma", "shape": [512], "dtype": "float32", "quantization": {"min": 0.43656274676322937, "scale": 0.009190163074755201, "dtype": "uint8"}}, {"name": "conv_dw_11_bn/beta", "shape": [512], "dtype": "float32", "quantization": {"min": -3.003710504606658, "scale": 0.028072060790716433, "dtype": "uint8"}}, {"name": "conv_dw_11_bn/moving_mean", "shape": [512], "dtype": "float32", "quantization": {"min": -13.237268986421473, "scale": 0.0888407314524931, "dtype": "uint8"}}, {"name": "conv_dw_11_bn/moving_variance", "shape": [512], "dtype": "float32", "quantization": {"min": 0.32041648030281067, "scale": 0.30526405397583456, "dtype": "uint8"}}, {"name": "conv_dw_12/depthwise_kernel", "shape": [3, 3, 512, 1], "dtype": "float32", "quantization": {"min": -2.266327362434537, "scale": 0.01618805258881812, "dtype": "uint8"}}, {"name": "conv_dw_12_bn/gamma", "shape": [512], "dtype": "float32", "quantization": {"min": 0.4445840120315552, "scale": 0.010093234099593817, "dtype": "uint8"}}, {"name": "conv_dw_12_bn/beta", "shape": [512], "dtype": "float32", "quantization": {"min": -2.2476148016312543, "scale": 0.029189802618587717, "dtype": "uint8"}}, {"name": "conv_dw_12_bn/moving_mean", "shape": [512], "dtype": "float32", "quantization": {"min": -11.420138865826177, "scale": 0.07006220163083544, "dtype": "uint8"}}, {"name": "conv_dw_12_bn/moving_variance", "shape": [512], "dtype": "float32", "quantization": {"min": 0.6969689726829529, "scale": 0.19029296823576386, "dtype": "uint8"}}, {"name": "conv_dw_13/depthwise_kernel", "shape": [3, 3, 1024, 1], "dtype": "float32", "quantization": {"min": -2.4448898895114075, "scale": 0.02020570156620998, "dtype": "uint8"}}, {"name": "conv_dw_13_bn/gamma", "shape": [1024], "dtype": "float32", "quantization": {"min": 0.5535848140716553, "scale": 0.015759749506034103, "dtype": "uint8"}}, {"name": "conv_dw_13_bn/beta", "shape": [1024], "dtype": "float32", "quantization": {"min": -4.375448137171128, "scale": 0.03289810629451976, "dtype": "uint8"}}, {"name": "conv_dw_13_bn/moving_mean", "shape": [1024], "dtype": "float32", "quantization": {"min": -7.960773266063017, "scale": 0.06030888837926528, "dtype": "uint8"}}, {"name": "conv_dw_13_bn/moving_variance", "shape": [1024], "dtype": "float32", "quantization": {"min": 3.917328610424912e-35, "scale": 0.1198748046276616, "dtype": "uint8"}}, {"name": "conv_dw_1_bn/gamma", "shape": [32], "dtype": "float32", "quantization": {"min": 0.02729351632297039, "scale": 0.014304472133517265, "dtype": "uint8"}}, {"name": "conv_dw_1_bn/beta", "shape": [32], "dtype": "float32", "quantization": {"min": -1.2455053890452665, "scale": 0.02491010778090533, "dtype": "uint8"}}, {"name": "conv_dw_1_bn/moving_mean", "shape": [32], "dtype": "float32", "quantization": {"min": -20.41161373362822, "scale": 0.2834946351892808, "dtype": "uint8"}}, {"name": "conv_dw_1_bn/moving_variance", "shape": [32], "dtype": "float32", "quantization": {"min": 3.917256289971688e-35, "scale": 1.416867005591299, "dtype": "uint8"}}, {"name": "conv_dw_2/depthwise_kernel", "shape": [3, 3, 64, 1], "dtype": "float32", "quantization": {"min": -6.283245971156102, "scale": 0.0494743777256386, "dtype": "uint8"}}, {"name": "conv_dw_2_bn/gamma", "shape": [64], "dtype": "float32", "quantization": {"min": -0.05607099590056083, "scale": 0.011214199180112166, "dtype": "uint8"}}, {"name": "conv_dw_2_bn/beta", "shape": [64], "dtype": "float32", "quantization": {"min": -2.244879924549776, "scale": 0.029537893744075998, "dtype": "uint8"}}, {"name": "conv_dw_2_bn/moving_mean", "shape": [64], "dtype": "float32", "quantization": {"min": -30.19603729248047, "scale": 0.2745094299316406, "dtype": "uint8"}}, {"name": "conv_dw_2_bn/moving_variance", "shape": [64], "dtype": "float32", "quantization": {"min": 3.917996426673536e-35, "scale": 1.640139590992647, "dtype": "uint8"}}, {"name": "conv_dw_3/depthwise_kernel", "shape": [3, 3, 128, 1], "dtype": "float32", "quantization": {"min": -10.775176384869745, "scale": 0.09209552465700636, "dtype": "uint8"}}, {"name": "conv_dw_3_bn/gamma", "shape": [128], "dtype": "float32", "quantization": {"min": 0.5081946849822998, "scale": 0.02588499200110342, "dtype": "uint8"}}, {"name": "conv_dw_3_bn/beta", "shape": [128], "dtype": "float32", "quantization": {"min": -1.6926299263449278, "scale": 0.028210498772415462, "dtype": "uint8"}}, {"name": "conv_dw_3_bn/moving_mean", "shape": [128], "dtype": "float32", "quantization": {"min": -26.929326076133577, "scale": 0.16830828797583486, "dtype": "uint8"}}, {"name": "conv_dw_3_bn/moving_variance", "shape": [128], "dtype": "float32", "quantization": {"min": 3.9175013759520595e-35, "scale": 0.4266286812576593, "dtype": "uint8"}}, {"name": "conv_dw_4/depthwise_kernel", "shape": [3, 3, 128, 1], "dtype": "float32", "quantization": {"min": -2.5218300819396973, "scale": 0.021191849428064683, "dtype": "uint8"}}, {"name": "conv_dw_4_bn/gamma", "shape": [128], "dtype": "float32", "quantization": {"min": 0.6044690608978271, "scale": 0.006512710159900141, "dtype": "uint8"}}, {"name": "conv_dw_4_bn/beta", "shape": [128], "dtype": "float32", "quantization": {"min": -1.8511896133422852, "scale": 0.02722337666679831, "dtype": "uint8"}}, {"name": "conv_dw_4_bn/moving_mean", "shape": [128], "dtype": "float32", "quantization": {"min": -48.01264600566789, "scale": 0.31587267108992034, "dtype": "uint8"}}, {"name": "conv_dw_4_bn/moving_variance", "shape": [128], "dtype": "float32", "quantization": {"min": 3.9179990095468656e-35, "scale": 0.7889349245557598, "dtype": "uint8"}}, {"name": "conv_dw_5/depthwise_kernel", "shape": [3, 3, 256, 1], "dtype": "float32", "quantization": {"min": -6.1691584175708245, "scale": 0.054594322279387826, "dtype": "uint8"}}, {"name": "conv_dw_5_bn/gamma", "shape": [256], "dtype": "float32", "quantization": {"min": 0.49436479806900024, "scale": 0.008262843477959726, "dtype": "uint8"}}, {"name": "conv_dw_5_bn/beta", "shape": [256], "dtype": "float32", "quantization": {"min": -2.46648011488073, "scale": 0.023490286808387904, "dtype": "uint8"}}, {"name": "conv_dw_5_bn/moving_mean", "shape": [256], "dtype": "float32", "quantization": {"min": -18.763236588122798, "scale": 0.14107696682799095, "dtype": "uint8"}}, {"name": "conv_dw_5_bn/moving_variance", "shape": [256], "dtype": "float32", "quantization": {"min": 0.11069668084383011, "scale": 0.26374816190378336, "dtype": "uint8"}}, {"name": "conv_dw_6/depthwise_kernel", "shape": [3, 3, 256, 1], "dtype": "float32", "quantization": {"min": -2.3099231196384804, "scale": 0.018046274372175628, "dtype": "uint8"}}, {"name": "conv_dw_6_bn/gamma", "shape": [256], "dtype": "float32", "quantization": {"min": 0.4139961302280426, "scale": 0.016115619037665573, "dtype": "uint8"}}, {"name": "conv_dw_6_bn/beta", "shape": [256], "dtype": "float32", "quantization": {"min": -4.298183519699995, "scale": 0.03523101245655733, "dtype": "uint8"}}, {"name": "conv_dw_6_bn/moving_mean", "shape": [256], "dtype": "float32", "quantization": {"min": -28.29713372623219, "scale": 0.18864755817488127, "dtype": "uint8"}}, {"name": "conv_dw_6_bn/moving_variance", "shape": [256], "dtype": "float32", "quantization": {"min": 0.3935209810733795, "scale": 0.4170429429587196, "dtype": "uint8"}}, {"name": "conv_dw_7/depthwise_kernel", "shape": [3, 3, 512, 1], "dtype": "float32", "quantization": {"min": -4.5318671207801975, "scale": 0.03906782000672584, "dtype": "uint8"}}, {"name": "conv_dw_7_bn/gamma", "shape": [512], "dtype": "float32", "quantization": {"min": 0.5427302122116089, "scale": 0.010085708487267588, "dtype": "uint8"}}, {"name": "conv_dw_7_bn/beta", "shape": [512], "dtype": "float32", "quantization": {"min": -2.660389567356484, "scale": 0.025580668916889267, "dtype": "uint8"}}, {"name": "conv_dw_7_bn/moving_mean", "shape": [512], "dtype": "float32", "quantization": {"min": -11.729525352926816, "scale": 0.08886004055247587, "dtype": "uint8"}}, {"name": "conv_dw_7_bn/moving_variance", "shape": [512], "dtype": "float32", "quantization": {"min": 0.18805499374866486, "scale": 0.19961535153435725, "dtype": "uint8"}}, {"name": "conv_dw_8/depthwise_kernel", "shape": [3, 3, 512, 1], "dtype": "float32", "quantization": {"min": -3.492040406956392, "scale": 0.03754882158017626, "dtype": "uint8"}}, {"name": "conv_dw_8_bn/gamma", "shape": [512], "dtype": "float32", "quantization": {"min": 0.510184645652771, "scale": 0.010486092754438812, "dtype": "uint8"}}, {"name": "conv_dw_8_bn/beta", "shape": [512], "dtype": "float32", "quantization": {"min": -2.982952510609346, "scale": 0.03314391678454829, "dtype": "uint8"}}, {"name": "conv_dw_8_bn/moving_mean", "shape": [512], "dtype": "float32", "quantization": {"min": -12.538634588204179, "scale": 0.11096136803720512, "dtype": "uint8"}}, {"name": "conv_dw_8_bn/moving_variance", "shape": [512], "dtype": "float32", "quantization": {"min": 0.8492990136146545, "scale": 0.20578328090555528, "dtype": "uint8"}}, {"name": "conv_dw_9/depthwise_kernel", "shape": [3, 3, 512, 1], "dtype": "float32", "quantization": {"min": -3.9665178598142137, "scale": 0.03510192796295764, "dtype": "uint8"}}, {"name": "conv_dw_9_bn/gamma", "shape": [512], "dtype": "float32", "quantization": {"min": 0.41863274574279785, "scale": 0.012303313087014591, "dtype": "uint8"}}, {"name": "conv_dw_9_bn/beta", "shape": [512], "dtype": "float32", "quantization": {"min": -3.345613319733564, "scale": 0.02593498697467879, "dtype": "uint8"}}, {"name": "conv_dw_9_bn/moving_mean", "shape": [512], "dtype": "float32", "quantization": {"min": -12.52483875798244, "scale": 0.08820308984494676, "dtype": "uint8"}}, {"name": "conv_dw_9_bn/moving_variance", "shape": [512], "dtype": "float32", "quantization": {"min": 3.9175013759520595e-35, "scale": 0.15804150151271446, "dtype": "uint8"}}, {"name": "conv_pw_1/kernel", "shape": [1, 1, 32, 64], "dtype": "float32", "quantization": {"min": -1.1096633658689612, "scale": 0.009021653381048465, "dtype": "uint8"}}, {"name": "conv_pw_10/kernel", "shape": [1, 1, 512, 512], "dtype": "float32", "quantization": {"min": -0.43870472685963496, "scale": 0.005553224390628291, "dtype": "uint8"}}, {"name": "conv_pw_10_bn/gamma", "shape": [512], "dtype": "float32", "quantization": {"min": 0.41196906566619873, "scale": 0.010895611725601495, "dtype": "uint8"}}, {"name": "conv_pw_10_bn/beta", "shape": [512], "dtype": "float32", "quantization": {"min": -1.5629728092866784, "scale": 0.0150285847046796, "dtype": "uint8"}}, {"name": "conv_pw_10_bn/moving_mean", "shape": [512], "dtype": "float32", "quantization": {"min": -5.047642455381506, "scale": 0.037389944113937076, "dtype": "uint8"}}, {"name": "conv_pw_10_bn/moving_variance", "shape": [512], "dtype": "float32", "quantization": {"min": 0.20431777834892273, "scale": 0.004814112537047442, "dtype": "uint8"}}, {"name": "conv_pw_11/kernel", "shape": [1, 1, 512, 512], "dtype": "float32", "quantization": {"min": -0.5226681106230793, "scale": 0.006452692723741719, "dtype": "uint8"}}, {"name": "conv_pw_11_bn/gamma", "shape": [512], "dtype": "float32", "quantization": {"min": 0.27339667081832886, "scale": 0.007839575234581442, "dtype": "uint8"}}, {"name": "conv_pw_11_bn/beta", "shape": [512], "dtype": "float32", "quantization": {"min": -2.080856818778842, "scale": 0.016646854550230735, "dtype": "uint8"}}, {"name": "conv_pw_11_bn/moving_mean", "shape": [512], "dtype": "float32", "quantization": {"min": -5.345881450877471, "scale": 0.03738378636977252, "dtype": "uint8"}}, {"name": "conv_pw_11_bn/moving_variance", "shape": [512], "dtype": "float32", "quantization": {"min": 0.19217680394649506, "scale": 0.00603538453578949, "dtype": "uint8"}}, {"name": "conv_pw_12/kernel", "shape": [1, 1, 512, 1024], "dtype": "float32", "quantization": {"min": -0.8263545503803328, "scale": 0.005902532502716663, "dtype": "uint8"}}, {"name": "conv_pw_12_bn/gamma", "shape": [1024], "dtype": "float32", "quantization": {"min": 0.05526162311434746, "scale": 0.012011205404996872, "dtype": "uint8"}}, {"name": "conv_pw_12_bn/beta", "shape": [1024], "dtype": "float32", "quantization": {"min": -2.934343042560652, "scale": 0.018690083073634726, "dtype": "uint8"}}, {"name": "conv_pw_12_bn/moving_mean", "shape": [1024], "dtype": "float32", "quantization": {"min": -5.0206393634571755, "scale": 0.03718992121079389, "dtype": "uint8"}}, {"name": "conv_pw_12_bn/moving_variance", "shape": [1024], "dtype": "float32", "quantization": {"min": 2.85073401680982e-25, "scale": 0.004775870080087699, "dtype": "uint8"}}, {"name": "conv_pw_13/kernel", "shape": [1, 1, 1024, 1024], "dtype": "float32", "quantization": {"min": -0.5053440214372149, "scale": 0.0038575879499024037, "dtype": "uint8"}}, {"name": "conv_pw_13_bn/gamma", "shape": [1024], "dtype": "float32", "quantization": {"min": 5.384085178375244, "scale": 0.012000889871634689, "dtype": "uint8"}}, {"name": "conv_pw_13_bn/beta", "shape": [1024], "dtype": "float32", "quantization": {"min": -7.4214701652526855, "scale": 0.015259336957744524, "dtype": "uint8"}}, {"name": "conv_pw_13_bn/moving_mean", "shape": [1024], "dtype": "float32", "quantization": {"min": -3.5607182493396836, "scale": 0.025990644155764114, "dtype": "uint8"}}, {"name": "conv_pw_13_bn/moving_variance", "shape": [1024], "dtype": "float32", "quantization": {"min": 0.3086370527744293, "scale": 0.0013571078870810713, "dtype": "uint8"}}, {"name": "conv_pw_1_bn/gamma", "shape": [64], "dtype": "float32", "quantization": {"min": 0.35251274704933167, "scale": 0.03222390939207638, "dtype": "uint8"}}, {"name": "conv_pw_1_bn/beta", "shape": [64], "dtype": "float32", "quantization": {"min": -3.432664801092709, "scale": 0.02746131840874167, "dtype": "uint8"}}, {"name": "conv_pw_1_bn/moving_mean", "shape": [64], "dtype": "float32", "quantization": {"min": -6.93844446107453, "scale": 0.05734251620722752, "dtype": "uint8"}}, {"name": "conv_pw_1_bn/moving_variance", "shape": [64], "dtype": "float32", "quantization": {"min": 4.3670433755589374e-26, "scale": 0.012167724908566942, "dtype": "uint8"}}, {"name": "conv_pw_2/kernel", "shape": [1, 1, 64, 128], "dtype": "float32", "quantization": {"min": -0.8829271653119256, "scale": 0.00735772637759938, "dtype": "uint8"}}, {"name": "conv_pw_2_bn/gamma", "shape": [128], "dtype": "float32", "quantization": {"min": -0.2571936688002418, "scale": 0.017146244586682787, "dtype": "uint8"}}, {"name": "conv_pw_2_bn/beta", "shape": [128], "dtype": "float32", "quantization": {"min": -3.0648084416108974, "scale": 0.028643069547765396, "dtype": "uint8"}}, {"name": "conv_pw_2_bn/moving_mean", "shape": [128], "dtype": "float32", "quantization": {"min": -7.331926968518426, "scale": 0.0660533961127786, "dtype": "uint8"}}, {"name": "conv_pw_2_bn/moving_variance", "shape": [128], "dtype": "float32", "quantization": {"min": 3.4555546589189015e-26, "scale": 0.01567852263357125, "dtype": "uint8"}}, {"name": "conv_pw_3/kernel", "shape": [1, 1, 128, 128], "dtype": "float32", "quantization": {"min": -1.1422883706934313, "scale": 0.010576744173087326, "dtype": "uint8"}}, {"name": "conv_pw_3_bn/gamma", "shape": [128], "dtype": "float32", "quantization": {"min": 0.18756729364395142, "scale": 0.015327200936336143, "dtype": "uint8"}}, {"name": "conv_pw_3_bn/beta", "shape": [128], "dtype": "float32", "quantization": {"min": -3.4403865215825102, "scale": 0.033401810889150584, "dtype": "uint8"}}, {"name": "conv_pw_3_bn/moving_mean", "shape": [128], "dtype": "float32", "quantization": {"min": -5.691157238156188, "scale": 0.04948832381005381, "dtype": "uint8"}}, {"name": "conv_pw_3_bn/moving_variance", "shape": [128], "dtype": "float32", "quantization": {"min": 3.916289235461402e-23, "scale": 0.013715842190910788, "dtype": "uint8"}}, {"name": "conv_pw_4/kernel", "shape": [1, 1, 128, 256], "dtype": "float32", "quantization": {"min": -0.7556886518702788, "scale": 0.008039240977343392, "dtype": "uint8"}}, {"name": "conv_pw_4_bn/gamma", "shape": [256], "dtype": "float32", "quantization": {"min": 0.3533115088939667, "scale": 0.010904545994365916, "dtype": "uint8"}}, {"name": "conv_pw_4_bn/beta", "shape": [256], "dtype": "float32", "quantization": {"min": -2.797647476196289, "scale": 0.02331372896830241, "dtype": "uint8"}}, {"name": "conv_pw_4_bn/moving_mean", "shape": [256], "dtype": "float32", "quantization": {"min": -4.070236729640587, "scale": 0.04625269010955212, "dtype": "uint8"}}, {"name": "conv_pw_4_bn/moving_variance", "shape": [256], "dtype": "float32", "quantization": {"min": 0.22553664445877075, "scale": 0.01043178965063656, "dtype": "uint8"}}, {"name": "conv_pw_5/kernel", "shape": [1, 1, 256, 256], "dtype": "float32", "quantization": {"min": -0.8173725254395429, "scale": 0.006054611299552169, "dtype": "uint8"}}, {"name": "conv_pw_5_bn/gamma", "shape": [256], "dtype": "float32", "quantization": {"min": 0.329801470041275, "scale": 0.010814671773536533, "dtype": "uint8"}}, {"name": "conv_pw_5_bn/beta", "shape": [256], "dtype": "float32", "quantization": {"min": -2.380354077208276, "scale": 0.0228880199731565, "dtype": "uint8"}}, {"name": "conv_pw_5_bn/moving_mean", "shape": [256], "dtype": "float32", "quantization": {"min": -2.712379535039266, "scale": 0.03191034747105019, "dtype": "uint8"}}, {"name": "conv_pw_5_bn/moving_variance", "shape": [256], "dtype": "float32", "quantization": {"min": 0.2689167261123657, "scale": 0.008019561861075606, "dtype": "uint8"}}, {"name": "conv_pw_6/kernel", "shape": [1, 1, 256, 512], "dtype": "float32", "quantization": {"min": -0.5439879174325981, "scale": 0.004458917356004902, "dtype": "uint8"}}, {"name": "conv_pw_6_bn/gamma", "shape": [512], "dtype": "float32", "quantization": {"min": 0.13623639941215515, "scale": 0.008706394948211372, "dtype": "uint8"}}, {"name": "conv_pw_6_bn/beta", "shape": [512], "dtype": "float32", "quantization": {"min": -0.9138571059002596, "scale": 0.012871226843665628, "dtype": "uint8"}}, {"name": "conv_pw_6_bn/moving_mean", "shape": [512], "dtype": "float32", "quantization": {"min": -4.879404273687624, "scale": 0.03365106395646637, "dtype": "uint8"}}, {"name": "conv_pw_6_bn/moving_variance", "shape": [512], "dtype": "float32", "quantization": {"min": 0.23662085831165314, "scale": 0.01010455354756, "dtype": "uint8"}}, {"name": "conv_pw_7/kernel", "shape": [1, 1, 512, 512], "dtype": "float32", "quantization": {"min": -0.5809747868893194, "scale": 0.004469036822225533, "dtype": "uint8"}}, {"name": "conv_pw_7_bn/gamma", "shape": [512], "dtype": "float32", "quantization": {"min": 0.28412553668022156, "scale": 0.007289841712689867, "dtype": "uint8"}}, {"name": "conv_pw_7_bn/beta", "shape": [512], "dtype": "float32", "quantization": {"min": -1.160616958842558, "scale": 0.0138168685576495, "dtype": "uint8"}}, {"name": "conv_pw_7_bn/moving_mean", "shape": [512], "dtype": "float32", "quantization": {"min": -3.695308573105756, "scale": 0.030794238109214632, "dtype": "uint8"}}, {"name": "conv_pw_7_bn/moving_variance", "shape": [512], "dtype": "float32", "quantization": {"min": 0.4517148733139038, "scale": 0.012897884611989938, "dtype": "uint8"}}, {"name": "conv_pw_8/kernel", "shape": [1, 1, 512, 512], "dtype": "float32", "quantization": {"min": -0.5262953328151329, "scale": 0.0050605320462993545, "dtype": "uint8"}}, {"name": "conv_pw_8_bn/gamma", "shape": [512], "dtype": "float32", "quantization": {"min": 0.19040143489837646, "scale": 0.007755615664463417, "dtype": "uint8"}}, {"name": "conv_pw_8_bn/beta", "shape": [512], "dtype": "float32", "quantization": {"min": -2.609620361702115, "scale": 0.019920766119863473, "dtype": "uint8"}}, {"name": "conv_pw_8_bn/moving_mean", "shape": [512], "dtype": "float32", "quantization": {"min": -3.373598353068034, "scale": 0.02834956599216835, "dtype": "uint8"}}, {"name": "conv_pw_8_bn/moving_variance", "shape": [512], "dtype": "float32", "quantization": {"min": 1.907441657160629e-20, "scale": 0.007416827070946787, "dtype": "uint8"}}, {"name": "conv_pw_9/kernel", "shape": [1, 1, 512, 512], "dtype": "float32", "quantization": {"min": -0.685037960725672, "scale": 0.005661470749798943, "dtype": "uint8"}}, {"name": "conv_pw_9_bn/gamma", "shape": [512], "dtype": "float32", "quantization": {"min": 0.17156356573104858, "scale": 0.012655307031145284, "dtype": "uint8"}}, {"name": "conv_pw_9_bn/beta", "shape": [512], "dtype": "float32", "quantization": {"min": -2.2075741805282294, "scale": 0.02323762295292873, "dtype": "uint8"}}, {"name": "conv_pw_9_bn/moving_mean", "shape": [512], "dtype": "float32", "quantization": {"min": -2.4883577795589673, "scale": 0.02304034981073118, "dtype": "uint8"}}, {"name": "conv_pw_9_bn/moving_variance", "shape": [512], "dtype": "float32", "quantization": {"min": 5.285135130984908e-16, "scale": 0.006054768375321929, "dtype": "uint8"}}, {"name": "dense/kernel", "shape": [1024, 120], "dtype": "float32", "quantization": {"min": -0.3672864927965052, "scale": 0.0021862291237887215, "dtype": "uint8"}}, {"name": "dense/bias", "shape": [120], "dtype": "float32", "quantization": {"min": -0.0219156122675129, "scale": 0.00019567510953136518, "dtype": "uint8"}}]}]}